OpenMV/ei-vehicle-detection-openmv-v1/trained.tflite (tflite, 56552 bytes, 21 tensors)

model_1/logits/Conv2D i1 [2, 1, 1, 32]
56 -32 -38 78 6 -12 27 77
116 -25 -31 -20 -28 51 -31 51
75 -53 -10 19 127 53 51 -53
-72 -71 1 56 6 -47 -15 54
60 83 78 -71 -88 80 -47 11
-44 -20 40 111 127 42 34 -2
-46 -2 -85 -121 -94 40 37 122
96 87 -58 -7 113 -117 -118 -19
00000000: 38e0 da4e 06f4 1b4d 74e7 e1ec e433 e133
00000010: 4bcb f613 7f35 33cb b8b9 0138 06d1 f136
00000020: 3c53 4eb9 a850 d10b d4ec 286f 7f2a 22fe
00000030: d2fe ab87 a228 257a 6057 c6f9 718b 8aed

model_1/head/Conv2D i1 [32, 1, 1, 96]
-49 -51 106 -12 104 -21 -100 -118
54 -99 -122 2 62 6 -42 52
-61 -38 -76 -57 -78 -116 1 111
-120 7 78 -54 116 -18 -23 -87
85 -76 -111 71 -118 -88 -106 20
77 -94 -106 106 53 -117 112 -23
16 -61 -29 102 -85 -65 -102 115
21 64 127 -124 -81 90 -61 52
-20 12 69 82 57 102 84 -127
104 -103 45 85 -124 11 -70 20
53 20 99 -11 -66 -47 -96 103
26 118 -20 -119 15 63 27 21
-56 33 -74 -20 -24 64 33 9
72 -88 -98 104 81 -23 22 66
103 -37 29 117 -51 -8 35 22
41 20 -38 96 17 15 97 -57
64 98 -25 31 51 59 -11 -70
-56 7 -20 -89 -30 39 -24 -49
-18 -77 127 65 20 78 -71 -43
27 100 62 80 -51 116 -70 -64
-50 36 68 22 112 29 18 9
-103 97 -46 41 83 -43 -41 61
-73 88 -52 -102 29 108 -62 -59
67 76 73 26 87 81 30 5
45 40 -73 77 -9 -75 88 98
-110 97 -39 123 115 -16 84 -112
-60 -27 28 63 -108 -20 116 17
-18 86 107 3 -66 93 86 103
-65 -21 -117 -108 -88 100 112 -40
-120 -80 15 -4 -85 127 -23 -79
107 42 113 -82 -40 65 25 22
-72 104 -60 6 -15 68 -46 82
00000000: cfcd 6af4 68eb 9c8a 369d 8602 3e06 d634
00000010: c3da b4c7 b28c 016f 8807 4eca 74ee e9a9
00000020: 55b4 9147 8aa8 9614 4da2 966a 358b 70e9
00000030: 10c3 e366 abbf 9a73 1540 7f84 af5a c334
00000040: ec0c 4552 3966 5481 6899 2d55 840b ba14
00000050: 3514 63f5 bed1 a067 1a76 ec89 0f3f 1b15
00000060: c821 b6ec e840 2109 48a8 9e68 51e9 1642
00000070: 67db 1d75 cdf8 2316 2914 da60 110f 61c7
00000080: 4062 e71f 333b f5ba c807 eca7 e227 e8cf
00000090: eeb3 7f41 144e b9d5 1b64 3e50 cd74 bac0
000000a0: ce24 4416 701d 1209 9961 d229 53d5 d73d
000000b0: b758 cc9a 1d6c c2c5 434c 491a 5751 1e05
000000c0: 2d28 b74d f7b5 5862 9261 d97b 73f0 5490
000000d0: c4e5 1c3f 94ec 7411 ee56 6b03 be5d 5667
000000e0: bfeb 8b94 a864 70d8 88b0 0ffc ab7f e9b1
000000f0: 6b2a 71ae d841 1916 b868 c406 f144 d252

model_1/block_6_expand/Conv2D i1 [96, 1, 1, 16]
-39 113 2 -127 -34 -33 -30 -83
-33 17 7 75 18 -72 -12 46
-23 -5 -75 -14 -39 -25 17 -74
68 39 -77 22 17 5 23 -127
16 -9 -43 23 19 0 -31 -39
127 -31 -13 27 -15 79 -53 27
40 -71 5 -109 13 -36 -10 -14
114 1 81 41 -9 38 21 127
-106 69 12 46 18 -39 9 34
-19 17 35 -52 -127 -24 -4 33
8 58 106 -11 8 67 -74 73
-48 56 -26 -21 47 -46 -127 32
25 -47 125 -127 52 2 -39 88
-89 -105 65 -48 -1 79 -14 79
37 127 -31 -50 101 22 5 -59
127 99 -23 17 29 -33 66 34
17 -87 5 -93 20 -68 17 -76
23 58 74 -10 19 127 78 67
10 -28 1 127 36 -4 34 -57
-55 99 31 -15 -4 -56 -9 -13
-34 50 -42 -127 15 -3 3 23
27 -21 47 -53 -49 -75 17 41
-7 30 27 -11 90 -32 94 -71
-100 46 7 18 -6 127 -67 -35
47 28 -127 14 53 -101 19 -19
-21 46 -61 -60 -21 86 20 19
-23 12 -27 16 10 -127 2 16
0 -7 12 -4 5 -20 15 13
15 -14 96 -18 74 12 -127 -109
-28 -36 39 7 0 -80 -14 -49
-92 10 -23 -62 -2 -3 127 61
-26 45 72 -5 14 86 71 11
00000000: d971 0281 dedf e2ad df11 074b 12b8 f42e
00000010: e9fb b5f2 d9e7 11b6 4427 b316 1105 1781
00000020: 10f7 d517 1300 e1d9 7fe1 f31b f14f cb1b
00000030: 28b9 0593 0ddc f6f2 7201 5129 f726 157f
00000040: 9645 0c2e 12d9 0922 ed11 23cc 81e8 fc21
00000050: 083a 6af5 0843 b649 d038 e6eb 2fd2 8120
00000060: 19d1 7d81 3402 d958 a797 41d0 ff4f f24f
00000070: 257f e1ce 6516 05c5 7f63 e911 1ddf 4222
00000080: 11a9 05a3 14bc 11b4 173a 4af6 137f 4e43
00000090: 0ae4 017f 24fc 22c7 c963 1ff1 fcc8 f7f3
000000a0: de32 d681 0ffd 0317 1beb 2fcb cfb5 1129
000000b0: f91e 1bf5 5ae0 5eb9 9c2e 0712 fa7f bddd
000000c0: 2f1c 810e 359b 13ed eb2e c3c4 eb56 1413
000000d0: e90c e510 0a81 0210 00f9 0cfc 05ec 0f0d
000000e0: 0ff2 60ee 4a0c 8193 e4dc 2707 00b0 f2cf
000000f0: a40a e9c2 fefd 7f3d e62d 48fb 0e56 470b

model_1/block_5_project/Conv2D i1 [16, 1, 1, 96]
-31 -11 17 -34 27 -10 -40 1
13 1 -10 11 -8 1 -29 12
0 10 2 8 26 -29 1 4
9 15 44 127 33 -35 37 -7
2 3 2 -15 -13 5 -32 -2
16 9 -3 42 9 20 10 16
20 -1 0 14 11 -11 -3 79
1 9 -29 -31 -10 6 -5 -22
-42 -58 -25 48 9 17 15 -18
-8 -37 -7 -22 -28 18 9 1
-10 -27 37 14 -3 -10 -5 -93
5 10 1 -7 43 -25 -25 -11
75 -87 -89 -55 127 -21 100 38
-1 -89 -66 -41 11 -21 -44 38
-74 -6 49 24 -16 34 -3 -71
1 -18 -62 -91 22 -21 -67 32
-41 56 5 4 2 14 -18 24
-82 50 -53 -24 -50 85 6 -11
21 -83 1 -61 -27 24 45 22
-74 -24 -29 -41 22 5 8 -67
-82 109 -12 -32 -13 -40 -20 33
73 -107 -38 5 60 -54 54 13
-6 -22 16 16 -76 28 -28 28
19 -92 -6 4 34 -8 9 114
23 55 -116 -10 103 85 64 59
-23 -112 -6 -28 10 -8 46 47
30 -36 -49 57 11 -14 104 15
53 15 -25 -58 24 -13 59 -78
31 68 -37 41 -127 -78 31 24
-8 -48 12 -9 11 -52 -5 55
-45 27 -40 -24 88 -21 -28 89
23 1 27 -7 25 29 58 -34
00000000: e1f5 11de 1bf6 d801 0d01 f60b f801 e30c
00000010: 000a 0208 1ae3 0104 090f 2c7f 21dd 25f9
00000020: 0203 02f1 f305 e0fe 1009 fd2a 0914 0a10
00000030: 14ff 000e 0bf5 fd4f 0109 e3e1 f606 fbea
00000040: d6c6 e730 0911 0fee f8db f9ea e412 0901
00000050: f6e5 250e fdf6 fba3 050a 01f9 2be7 e7f5
00000060: 4ba9 a7c9 7feb 6426 ffa7 bed7 0beb d426
00000070: b6fa 3118 f022 fdb9 01ee c2a5 16eb bd20
00000080: d738 0504 020e ee18 ae32 cbe8 ce55 06f5
00000090: 15ad 01c3 e518 2d16 b6e8 e3d7 1605 08bd
000000a0: ae6d f4e0 f3d8 ec21 4995 da05 3cca 360d
000000b0: faea 1010 b41c e41c 13a4 fa04 22f8 0972
000000c0: 1737 8cf6 6755 403b e990 fae4 0af8 2e2f
000000d0: 1edc cf39 0bf2 680f 350f e7c6 18f3 3bb2
000000e0: 1f44 db29 81b2 1f18 f8d0 0cf7 0bcc fb37
000000f0: d31b d8e8 58eb e459 1701 1bf9 191d 3ade

model_1/block_5_depthwise_BN/FusedBatchNormV3;model_1/block_5_depthwise/depthwise;model_1/block_6_expand/Conv2D i1 [1, 3, 3, 96]
-52 -73 -9 127 22 78 72 -54
-14 -16 -15 -4 -30 1 37 2
-7 -43 26 20 22 -127 127 8
-76 9 49 -29 -126 -127 39 24
9 24 61 -19 -31 -13 29 -7
-14 29 -110 70 25 -65 37 47
-18 51 -24 20 1 -8 17 49
-88 -47 -60 -20 -11 3 10 37
66 -25 77 15 -7 17 21 127
20 23 27 1 -10 18 127 -5
-16 16 -28 21 121 22 -72 -15
-2 -27 -15 -39 3 -25 -16 26
127 -127 73 106 -44 127 36 -114
71 5 -17 127 127 -94 -13 16
11 127 127 -113 127 -76 81 68
-127 -107 -66 -33 -56 45 -58 -20
-88 49 -127 -85 -45 -15 -53 62
-1 127 127 78 -49 -109 -114 -50
-15 -127 41 84 64 -33 44 82
-46 42 -74 -114 -44 -40 -62 67
71 -60 29 31 -78 33 -17 90
114 127 14 20 2 58 -31 54
63 127 127 -22 -6 72 -106 127
-120 -100 3 -127 -87 -127 -39 106
-79 -13 26 -77 14 -30 64 -7
81 -33 -29 19 -19 -1 -9 -10
-6 -14 8 -5 -12 -104 31 1
-111 100 4 -54 118 49 -14 9
0 11 14 -30 -10 32 18 13
26 15 -123 63 19 -17 37 13
-14 11 -17 5 -10 0 -4 21
-65 7 -35 52 -1 43 34 0
00000000: ccb7 f77f 164e 48ca f2f0 f1fc e201 2502
00000010: f9d5 1a14 1681 7f08 b409 31e3 8281 2718
00000020: 0918 3ded e1f3 1df9 f21d 9246 19bf 252f
00000030: ee33 e814 01f8 1131 a8d1 c4ec f503 0a25
00000040: 42e7 4d0f f911 157f 1417 1b01 f612 7ffb
00000050: f010 e415 7916 b8f1 fee5 f1d9 03e7 f01a
00000060: 7f81 496a d47f 248e 4705 ef7f 7fa2 f310
00000070: 0b7f 7f8f 7fb4 5144 8195 bedf c82d c6ec
00000080: a831 81ab d3f1 cb3e ff7f 7f4e cf93 8ece
00000090: f181 2954 40df 2c52 d22a b68e d4d8 c243
000000a0: 47c4 1d1f b221 ef5a 727f 0e14 023a e136
000000b0: 3f7f 7fea fa48 967f 889c 0381 a981 d96a
000000c0: b1f3 1ab3 0ee2 40f9 51df e313 edff f7f6
000000d0: faf2 08fb f498 1f01 9164 04ca 7631 f209
000000e0: 000b 0ee2 f620 120d 1a0f 853f 13ef 250d
000000f0: f20b ef05 f600 fc15 bf07 dd34 ff2b 2200

model_1/block_5_expand/Conv2D i1 [96, 1, 1, 16]
-22 86 -1 97 0 27 55 -1
69 25 -21 127 33 -71 20 -99
23 44 -18 -21 39 -31 127 -77
-15 63 -30 -30 -2 -34 21 18
-109 72 10 -19 -16 -1 8 49
-42 62 127 -30 -73 25 25 -73
-87 84 71 109 -68 80 64 127
46 116 -113 8 59 -83 -101 -92
28 -22 10 57 -38 91 -15 64
36 -27 -4 12 24 -19 -127 -22
-1 -43 56 -14 3 -7 -2 24
-74 98 -12 -127 -17 7 -49 -29
19 7 38 0 58 62 -69 -66
-13 -8 54 -6 127 -36 -21 -26
5 -1 127 -5 -23 -49 -4 -37
-79 48 -64 -71 6 -1 27 -8
20 28 84 72 -66 127 17 32
51 26 38 -114 -71 -21 -127 -79
31 -127 102 67 45 -32 13 16
117 16 88 17 -45 42 -120 -18
-81 -61 47 48 -87 26 12 58
89 122 8 -44 -37 127 63 -63
7 -31 11 -104 -42 -12 -75 -127
-65 56 1 -20 8 0 60 -28
-15 1 -2 -30 -53 -53 -78 6
-57 -54 -10 -3 21 127 64 26
12 -127 -64 8 10 -33 -41 -35
59 -10 -25 0 17 7 62 33
-21 -70 68 51 65 67 27 127
38 92 7 -61 -4 29 -75 126
9 -20 -18 61 13 -20 115 -4
-11 -127 22 -43 0 -28 4 -37
00000000: ea56 ff61 001b 37ff 4519 eb7f 21b9 149d
00000010: 172c eeeb 27e1 7fb3 f13f e2e2 fede 1512
00000020: 9348 0aed f0ff 0831 d63e 7fe2 b719 19b7
00000030: a954 476d bc50 407f 2e74 8f08 3bad 9ba4
00000040: 1cea 0a39 da5b f140 24e5 fc0c 18ed 81ea
00000050: ffd5 38f2 03f9 fe18 b662 f481 ef07 cfe3
00000060: 1307 2600 3a3e bbbe f3f8 36fa 7fdc ebe6
00000070: 05ff 7ffb e9cf fcdb b130 c0b9 06ff 1bf8
00000080: 141c 5448 be7f 1120 331a 268e b9eb 81b1
00000090: 1f81 6643 2de0 0d10 7510 5811 d32a 88ee
000000a0: afc3 2f30 a91a 0c3a 597a 08d4 db7f 3fc1
000000b0: 07e1 0b98 d6f4 b581 bf38 01ec 0800 3ce4
000000c0: f101 fee2 cbcb b206 c7ca f6fd 157f 401a
000000d0: 0c81 c008 0adf d7dd 3bf6 e700 1107 3e21
000000e0: ebba 4433 4143 1b7f 265c 07c3 fc1d b57e
000000f0: 09ec ee3d 0dec 73fc f581 16d5 00e4 04db

model_1/block_4_project/Conv2D i1 [16, 1, 1, 96]
-6 13 -1 26 29 75 -38 -15
40 -8 21 -4 -6 -9 15 43
20 -20 -3 -9 97 -58 8 -9
-26 -35 -41 -101 -11 -3 40 53
127 8 -11 -10 2 -11 -18 0
-35 24 7 -34 11 -46 -5 20
7 19 0 -9 -19 -23 -9 1
32 34 -23 -15 -61 39 -12 10
21 -3 46 -10 25 -15 24 -21
-38 -19 1 -16 -16 -88 18 -13
45 -24 -50 -49 32 1 12 40
-11 -4 22 -38 9 30 -4 117
57 -85 29 70 -7 -86 -21 -56
1 -73 -26 25 21 -67 -13 -33
-127 24 13 31 -6 -93 -30 14
92 -43 -80 51 -22 90 -12 41
-5 16 -48 5 2 -33 37 -5
-12 -69 62 -10 -34 9 64 -2
19 24 4 -35 69 -53 20 -18
12 35 -21 -99 46 -55 25 -49
-8 -73 37 35 19 41 -74 -1
-87 46 -2 75 37 81 15 -17
35 14 -50 47 -60 46 -16 58
-20 -13 45 37 -26 -46 35 -4
34 4 11 -48 15 -25 -23 27
61 -12 10 79 5 8 52 1
-10 4 8 4 -20 -64 13 -31
-7 -10 -39 26 1 7 127 -65
4 -81 -16 59 14 121 -40 -24
0 4 -14 45 -33 -56 -65 18
31 48 -31 -34 31 6 -2 -22
-39 15 1 23 -6 -11 63 102
00000000: fa0d ff1a 1d4b daf1 28f8 15fc faf7 0f2b
00000010: 14ec fdf7 61c6 08f7 e6dd d79b f5fd 2835
00000020: 7f08 f5f6 02f5 ee00 dd18 07de 0bd2 fb14
00000030: 0713 00f7 ede9 f701 2022 e9f1 c327 f40a
00000040: 15fd 2ef6 19f1 18eb daed 01f0 f0a8 12f3
00000050: 2de8 cecf 2001 0c28 f5fc 16da 091e fc75
00000060: 39ab 1d46 f9aa ebc8 01b7 e619 15bd f3df
00000070: 8118 0d1f faa3 e20e 5cd5 b033 ea5a f429
00000080: fb10 d005 02df 25fb f4bb 3ef6 de09 40fe
00000090: 1318 04dd 45cb 14ee 0c23 eb9d 2ec9 19cf
000000a0: f8b7 2523 1329 b6ff a92e fe4b 2551 0fef
000000b0: 230e ce2f c42e f03a ecf3 2d25 e6d2 23fc
000000c0: 2204 0bd0 0fe7 e91b 3df4 0a4f 0508 3401
000000d0: f604 0804 ecc0 0de1 f9f6 d91a 0107 7fbf
000000e0: 04af f03b 0e79 d8e8 0004 f22d dfc8 bf12
000000f0: 1f30 e1de 1f06 feea d90f 0117 faf5 3f66

model_1/block_4_depthwise_BN/FusedBatchNormV3;model_1/block_4_depthwise/depthwise;model_1/block_6_expand/Conv2D i1 [1, 3, 3, 96]
-18 8 -20 109 -16 18 -66 -53
17 -7 99 -9 5 -8 -4 61
7 15 -36 3 80 0 33 -35
2 15 44 52 23 9 24 49
-7 31 13 -15 6 51 -64 -27
21 9 26 16 -87 -58 27 -5
-10 -20 -8 -7 49 5 -10 1
-3 -34 23 -27 27 0 127 27
-14 -10 13 -52 67 35 -8 -4
82 -33 70 5 16 -124 29 63
3 12 127 -15 37 26 -25 -19
35 -7 -13 79 -2 19 -2 15
-50 15 -9 9 52 -11 -12 -127
37 11 -127 -5 -16 -11 5 97
20 -31 -14 -14 79 -96 127 26
-61 -34 -107 -14 27 34 -49 18
117 14 -12 -2 -22 127 -66 -127
8 -20 -33 12 45 -127 127 -45
-75 47 49 7 39 -65 31 54
36 41 -99 90 127 37 5 -20
43 -38 -91 0 39 -29 -22 49
-53 -50 108 -2 -31 -60 -34 63
-65 59 -16 9 -11 46 58 -41
-27 52 -11 70 -127 -30 23 -127
-1 -3 -23 -73 8 13 37 20
-3 -3 5 62 0 -12 -10 10
-11 16 -21 16 10 22 24 -32
1 -30 8 16 -3 3 46 -79
45 21 10 -23 14 5 -28 -21
7 3 -18 6 20 -34 21 0
8 -8 8 -6 4 5 -8 7
-6 43 5 0 15 -16 7 -16
00000000: ee08 ec6d f012 becb 11f9 63f7 05f8 fc3d
00000010: 070f dc03 5000 21dd 020f 2c34 1709 1831
00000020: f91f 0df1 0633 c0e5 1509 1a10 a9c6 1bfb
00000030: f6ec f8f9 3105 f601 fdde 17e5 1b00 7f1b
00000040: f2f6 0dcc 4323 f8fc 52df 4605 1084 1d3f
00000050: 030c 7ff1 251a e7ed 23f9 f34f fe13 fe0f
00000060: ce0f f709 34f5 f481 250b 81fb f0f5 0561
00000070: 14e1 f2f2 4fa0 7f1a c3de 95f2 1b22 cf12
00000080: 750e f4fe ea7f be81 08ec df0c 2d81 7fd3
00000090: b52f 3107 27bf 1f36 2429 9d5a 7f25 05ec
000000a0: 2bda a500 27e3 ea31 cbce 6cfe e1c4 de3f
000000b0: bf3b f009 f52e 3ad7 e534 f546 81e2 1781
000000c0: fffd e9b7 080d 2514 fdfd 053e 00f4 f60a
000000d0: f510 eb10 0a16 18e0 01e2 0810 fd03 2eb1
000000e0: 2d15 0ae9 0e05 e4eb 0703 ee06 14de 1500
000000f0: 08f8 08fa 0405 f807 fa2b 0500 0ff0 07f0

model_1/block_4_expand/Conv2D i1 [96, 1, 1, 16]
46 -16 127 122 69 -19 52 -34
122 -13 -82 -91 23 94 -60 -104
34 56 -7 10 55 1 17 33
28 69 -34 127 -3 -14 63 -73
-3 -38 -14 -12 -17 19 -68 32
-58 -91 0 55 -59 -127 63 -94
70 117 3 15 -127 0 -46 -29
-13 4 119 -67 -52 81 -33 -17
8 -6 9 16 -29 19 -9 51
-82 -48 9 -8 -25 -127 47 -41
113 -73 -36 -22 -8 -75 -21 18
-12 -12 -127 -19 -18 -1 5 43
-127 -64 3 119 -21 -46 -64 -17
-88 -64 -20 -5 15 77 59 98
-6 7 -81 41 55 -127 -12 44
4 -36 3 -6 13 25 -65 14
44 -64 -24 -20 17 14 -55 -51
-20 4 -66 3 -127 -6 -14 28
34 -44 53 79 6 13 -5 -30
127 -64 -30 3 33 44 -90 57
-108 -36 -32 -17 93 49 4 0
77 -57 -63 43 42 -127 -51 72
57 -11 -127 3 56 11 -21 38
-26 -31 -13 -22 5 18 -53 16
110 -53 40 38 13 -17 -127 -52
71 28 -115 14 -75 -9 19 78
36 -89 -16 -99 32 -10 -45 -35
-4 -127 20 -32 24 -3 -8 20
-95 50 -69 -41 102 -111 93 -74
77 74 24 -127 14 116 6 7
2 -10 45 14 34 -42 -24 -4
4 -60 -45 -34 -127 -40 -15 47
00000000: 2ef0 7f7a 45ed 34de 7af3 aea5 175e c498
00000010: 2238 f90a 3701 1121 1c45 de7f fdf2 3fb7
00000020: fdda f2f4 ef13 bc20 c6a5 0037 c581 3fa2
00000030: 4675 030f 8100 d2e3 f304 77bd cc51 dfef
00000040: 08fa 0910 e313 f733 aed0 09f8 e781 2fd7
00000050: 71b7 dcea f8b5 eb12 f4f4 81ed eeff 052b
00000060: 81c0 0377 ebd2 c0ef a8c0 ecfb 0f4d 3b62
00000070: fa07 af29 3781 f42c 04dc 03fa 0d19 bf0e
00000080: 2cc0 e8ec 110e c9cd ec04 be03 81fa f21c
00000090: 22d4 354f 060d fbe2 7fc0 e203 212c a639
000000a0: 94dc e0ef 5d31 0400 4dc7 c12b 2a81 cd48
000000b0: 39f5 8103 380b eb26 e6e1 f3ea 0512 cb10
000000c0: 6ecb 2826 0def 81cc 471c 8d0e b5f7 134e
000000d0: 24a7 f09d 20f6 d3dd fc81 14e0 18fd f814
000000e0: a132 bbd7 6691 5db6 4d4a 1881 0e74 0607
000000f0: 02f6 2d0e 22d6 e8fc 04c4 d3de 81d8 f12f

model_1/block_3_project/Conv2D i1 [16, 1, 1, 48]
-20 -8 -30 5 29 -1 15 96
-60 15 37 -15 23 -35 -11 16
24 -17 0 -11 62 -9 20 127
-22 73 7 -20 2 -24 45 -19
-29 44 23 -53 23 52 14 -15
-111 -19 14 56 39 40 -119 -58
-32 -12 18 13 -26 11 -5 51
-51 -33 20 -39 -24 -11 -5 0
-31 116 -9 23 14 6 -23 -16
26 -47 22 21 -31 -78 -35 17
-13 -8 32 -2 -5 -37 2 16
-20 -34 127 6 18 2 29 -1
-22 -7 -14 -34 4 -61 0 -22
4 10 20 28 11 14 -19 4
-5 -25 -20 -8 -2 4 -5 -127
-10 73 -13 4 -9 -17 -4 -7
-4 46 13 -4 20 14 26 -2
-42 7 -16 -5 3 -3 17 10
-7 29 4 -28 -2 -2 3 -7
-16 -6 9 37 -127 4 -5 -1
-3 5 -15 2 -29 7 9 15
-7 -14 1 20 -7 20 5 13
9 -4 19 24 -8 26 39 8
8 8 28 -27 8 -4 8 21
39 -26 12 8 18 18 18 -22
-30 -3 -18 -23 -6 11 8 18
25 -17 -82 0 -9 17 16 77
6 -21 4 44 10 -70 12 3
10 -33 38 -127 14 36 -4 16
-19 17 13 -21 -7 -21 1 15
22 6 -18 52 -3 1 2 29
-2 0 42 7 0 54 -1 -2
00000000: ecf8 e205 1dff 0f60 c40f 25f1 17dd f510
00000010: 18ef 00f5 3ef7 147f ea49 07ec 02e8 2ded
00000020: e32c 17cb 1734 0ef1 91ed 0e38 2728 89c6
00000030: e0f4 120d e60b fb33 cddf 14d9 e8f5 fb00
00000040: e174 f717 0e06 e9f0 1ad1 1615 e1b2 dd11
00000050: f3f8 20fe fbdb 0210 ecde 7f06 1202 1dff
00000060: eaf9 f2de 04c3 00ea 040a 141c 0b0e ed04
00000070: fbe7 ecf8 fe04 fb81 f649 f304 f7ef fcf9
00000080: fc2e 0dfc 140e 1afe d607 f0fb 03fd 110a
00000090: f91d 04e4 fefe 03f9 f0fa 0925 8104 fbff
000000a0: fd05 f102 e307 090f f9f2 0114 f914 050d
000000b0: 09fc 1318 f81a 2708 0808 1ce5 08fc 0815
000000c0: 27e6 0c08 1212 12ea e2fd eee9 fa0b 0812
000000d0: 19ef ae00 f711 104d 06eb 042c 0aba 0c03
000000e0: 0adf 2681 0e24 fc10 ed11 0deb f9eb 010f
000000f0: 1606 ee34 fd01 021d fe00 2a07 0036 fffe

model_1/block_3_depthwise_BN/FusedBatchNormV3;model_1/block_3_depthwise/depthwise i1 [1, 3, 3, 48]
70 -92 97 69 53 -35 105 -64
60 -92 -84 48 50 -44 -71 -89
101 80 50 78 67 -74 -84 51
-32 -42 -62 -64 -66 63 -64 -114
-12 42 68 64 -66 53 -51 -25
50 -71 55 63 -90 13 76 -34
82 -97 127 86 -73 -68 -55 -84
99 -105 -63 74 79 -107 -94 95
-38 96 83 127 86 -114 52 72
-52 -80 -68 -80 55 80 -32 -127
-87 81 81 84 -83 83 -83 -19
75 -92 82 89 -72 -127 93 -103
35 -47 69 36 18 -41 -47 -40
44 -32 8 35 29 -79 -55 0
-54 39 33 69 35 -53 31 26
-30 -48 -44 -24 32 30 87 -90
-88 45 36 34 -30 40 -38 -11
41 -42 38 42 -4 -9 37 -71
93 -110 -41 94 54 -84 127 -89
88 -115 -71 82 83 -112 -13 -127
127 107 75 -39 83 108 -127 73
72 -78 -95 -98 -127 86 -69 -11
-92 73 104 98 -85 79 -80 89
84 -104 87 91 -89 109 95 -87
127 -127 -62 127 -127 -127 -88 -127
127 -127 -127 127 127 -127 -22 101
-67 127 127 -51 127 127 68 127
127 -127 -127 -127 54 127 -27 14
-127 127 127 127 -127 127 -127 127
127 -127 127 127 -127 -11 127 -127
64 -76 -32 66 36 -64 -47 -66
56 -40 -59 59 49 -54 -17 13
00000000: 46a4 6145 35dd 69c0 3ca4 ac30 32d4 b9a7
00000010: 6550 324e 43b6 ac33 e0d6 c2c0 be3f c08e
00000020: f42a 4440 be35 cde7 32b9 373f a60d 4cde
00000030: 529f 7f56 b7bc c9ac 6397 c14a 4f95 a25f
00000040: da60 537f 568e 3448 ccb0 bcb0 3750 e081
00000050: a951 5154 ad53 aded 4ba4 5259 b881 5d99
00000060: 23d1 4524 12d7 d1d8 2ce0 0823 1db1 c900
00000070: ca27 2145 23cb 1f1a e2d0 d4e8 201e 57a6
00000080: a82d 2422 e228 daf5 29d6 262a fcf7 25b9
00000090: 5d92 d75e 36ac 7fa7 588d b952 5390 f381
000000a0: 7f6b 4bd9 536c 8149 48b2 a19e 8156 bbf5
000000b0: a449 6862 ab4f b059 5498 575b a76d 5fa9
000000c0: 7f81 c27f 8181 a881 7f81 817f 7f81 ea65
000000d0: bd7f 7fcd 7f7f 447f 7f81 8181 367f e50e
000000e0: 817f 7f7f 817f 817f 7f81 7f7f 81f5 7f81
000000f0: 40b4 e042 24c0 d1be 38d8 c53b 31ca ef0d

model_1/block_3_expand/Conv2D i1 [48, 1, 1, 8]
-127 2 1 68 -39 35 26 -24
-1 74 35 4 14 -41 98 127
-41 5 11 -3 -127 -22 17 15
79 -4 -9 -110 -127 14 36 -2
-127 52 -17 -13 53 -10 62 23
-99 -24 21 -14 -127 12 5 91
-14 -127 15 -2 10 -1 -3 37
-79 -11 -7 93 127 -28 -43 4
78 7 -8 -127 -14 -27 -49 -35
4 -127 -14 -10 5 75 -55 78
-78 3 15 13 -127 50 57 -20
127 5 26 11 -61 -38 -38 -126
-4 18 48 -3 12 -75 127 56
75 -28 2 -19 117 127 100 -51
119 95 -14 1 -127 4 -21 -29
-15 -127 10 -12 20 9 -17 20
-53 -21 -7 -12 -127 5 20 16
-24 111 -103 6 3 -127 92 -83
127 -29 -51 12 -50 31 12 98
127 -29 -44 -21 59 -9 34 15
127 17 -10 101 10 58 7 -66
9 19 -55 14 -29 68 -127 -52
-127 26 39 -8 -39 13 -65 -45
-45 -58 9 26 -127 57 87 -8
127 9 -8 10 -86 -35 2 -9
22 -25 -3 -17 127 48 41 -32
0 -91 -3 -41 14 -127 86 -48
-20 -127 32 -16 -4 -52 32 -9
-127 42 -2 11 -28 -7 125 64
-5 45 7 5 -4 36 -99 -127
127 -24 5 16 -108 -3 -33 -15
5 -36 73 -16 9 -90 127 45
00000000: 8102 0144 d923 1ae8 ff4a 2304 0ed7 627f
00000010: d705 0bfd 81ea 110f 4ffc f792 810e 24fe
00000020: 8134 eff3 35f6 3e17 9de8 15f2 810c 055b
00000030: f281 0ffe 0aff fd25 b1f5 f95d 7fe4 d504
00000040: 4e07 f881 f2e5 cfdd 0481 f2f6 054b c94e
00000050: b203 0f0d 8132 39ec 7f05 1a0b c3da da82
00000060: fc12 30fd 0cb5 7f38 4be4 02ed 757f 64cd
00000070: 775f f201 8104 ebe3 f181 0af4 1409 ef14
00000080: cbeb f9f4 8105 1410 e86f 9906 0381 5cad
00000090: 7fe3 cd0c ce1f 0c62 7fe3 d4eb 3bf7 220f
000000a0: 7f11 f665 0a3a 07be 0913 c90e e344 81cc
000000b0: 811a 27f8 d90d bfd3 d3c6 091a 8139 57f8
000000c0: 7f09 f80a aadd 02f7 16e7 fdef 7f30 29e0
000000d0: 00a5 fdd7 0e81 56d0 ec81 20f0 fccc 20f7
000000e0: 812a fe0b e4f9 7d40 fb2d 0705 fc24 9d81
000000f0: 7fe8 0510 94fd dff1 05dc 49f0 09a6 7f2d

model_1/block_2_project/Conv2D i1 [8, 1, 1, 48]
-51 -10 -12 10 17 -32 -2 -8
-117 118 -37 107 127 -3 67 -28
-14 -45 13 -11 -8 -12 -17 -36
19 -87 12 56 -5 13 13 -23
-23 -73 110 26 12 18 2 -11
97 5 36 -27 -33 34 -23 -8
7 38 121 -1 -10 -31 1 -78
35 -7 13 2 -20 9 -6 -127
8 -65 -2 7 -29 33 25 -41
-13 -12 16 1 12 -8 6 -3
-11 15 11 5 -18 -45 71 -54
5 47 -6 26 -15 10 20 -3
12 -54 14 -38 29 30 -8 -22
6 9 -5 25 -15 62 14 4
-42 126 -31 -43 -21 22 -47 -6
127 -4 -4 -1 -27 -10 5 -54
-1 -18 5 10 -8 -10 -12 14
17 -26 -22 -9 0 22 -24 -41
-8 -78 1 10 6 -5 -11 -4
-7 -15 10 22 15 -12 47 -4
-5 -20 7 16 -7 16 -17 1
6 58 -3 5 -11 3 127 2
11 8 -7 -2 -31 -15 -8 15
-10 3 -3 32 -10 4 6 33
-116 5 -3 -6 4 -50 2 -7
34 -43 18 -19 -14 -3 -10 -14
8 15 18 20 13 -37 19 9
-13 50 13 109 4 8 -10 -19
6 -127 -38 10 8 12 1 5
-56 -4 -10 8 -54 17 -2 12
-25 23 24 5 -40 25 -2 55
28 -2 3 12 0 -46 25 42
00000000: cdf6 f40a 11e0 fef8 8b76 db6b 7ffd 43e4
00000010: f2d3 0df5 f8f4 efdc 13a9 0c38 fb0d 0de9
00000020: e9b7 6e1a 0c12 02f5 6105 24e5 df22 e9f8
00000030: 0726 79ff f6e1 01b2 23f9 0d02 ec09 fa81
00000040: 08bf fe07 e321 19d7 f3f4 1001 0cf8 06fd
00000050: f50f 0b05 eed3 47ca 052f fa1a f10a 14fd
00000060: 0cca 0eda 1d1e f8ea 0609 fb19 f13e 0e04
00000070: d67e e1d5 eb16 d1fa 7ffc fcff e5f6 05ca
00000080: ffee 050a f8f6 f40e 11e6 eaf7 0016 e8d7
00000090: f8b2 010a 06fb f5fc f9f1 0a16 0ff4 2ffc
000000a0: fbec 0710 f910 ef01 063a fd05 f503 7f02
000000b0: 0b08 f9fe e1f1 f80f f603 fd20 f604 0621
000000c0: 8c05 fdfa 04ce 02f9 22d5 12ed f2fd f6f2
000000d0: 080f 1214 0ddb 1309 f332 0d6d 0408 f6ed
000000e0: 0681 da0a 080c 0105 c8fc f608 ca11 fe0c
000000f0: e717 1805 d819 fe37 1cfe 030c 00d2 192a

model_1/block_2_depthwise_BN/FusedBatchNormV3;model_1/block_2_depthwise/depthwise;model_1/block_3_depthwise/depthwise i1 [1, 3, 3, 48]
4 -4 20 111 5 79 -1 28
16 7 9 7 -6 -9 -44 8
-2 8 -23 -115 -5 -23 127 -9
-2 5 -6 9 -5 4 15 97
19 27 38 -27 1 35 -3 3
17 -70 -8 -9 16 3 -6 -9
127 10 15 -127 28 84 11 10
126 127 7 42 -48 -23 5 7
127 -56 -59 -59 -98 24 -111 15
20 69 -32 -86 24 20 10 -125
5 -63 127 9 -40 -47 -7 112
-79 -100 -30 3 -35 -7 -127 23
-33 -4 7 16 0 62 3 17
29 7 -13 30 -13 -3 16 3
-104 28 -4 75 -30 -13 -19 -6
-4 -58 -3 30 -16 4 3 -22
7 -24 15 -18 0 47 41 -11
50 35 -16 11 -43 4 -1 -5
125 6 0 -99 15 -29 35 -17
9 8 -11 53 -6 -2 18 -33
-1 -49 -56 -86 11 -74 -126 -17
5 97 -15 -127 -8 31 11 -107
16 -53 -4 127 -2 59 -43 43
-62 -127 38 -89 -44 -14 -12 -5
28 -124 -127 116 -127 -127 -127 -127
-127 -98 127 -127 127 127 34 -127
-84 127 127 -107 127 127 113 127
127 -127 -127 29 -127 -127 94 127
-127 127 -30 -41 127 -127 127 127
127 -81 127 127 127 -120 102 106
54 6 48 -13 5 -62 44 18
-23 13 -103 -9 2 -41 127 2
00000000: 04fc 146f 054f ff1c 1007 0907 faf7 d408
00000010: fe08 e98d fbe9 7ff7 fe05 fa09 fb04 0f61
00000020: 131b 26e5 0123 fd03 11ba f8f7 1003 faf7
00000030: 7f0a 0f81 1c54 0b0a 7e7f 072a d0e9 0507
00000040: 7fc8 c5c5 9e18 910f 1445 e0aa 1814 0a83
00000050: 05c1 7f09 d8d1 f970 b19c e203 ddf9 8117
00000060: dffc 0710 003e 0311 1d07 f31e f3fd 1003
00000070: 981c fc4b e2f3 edfa fcc6 fd1e f004 03ea
00000080: 07e8 0fee 002f 29f5 3223 f00b d504 fffb
00000090: 7d06 009d 0fe3 23ef 0908 f535 fafe 12df
000000a0: ffcf c8aa 0bb6 82ef 0561 f181 f81f 0b95
000000b0: 10cb fc7f fe3b d52b c281 26a7 d4f2 f4fb
000000c0: 1c84 8174 8181 8181 819e 7f81 7f7f 2281
000000d0: ac7f 7f95 7f7f 717f 7f81 811d 8181 5e7f
000000e0: 817f e2d7 7f81 7f7f 7faf 7f7f 7f88 666a
000000f0: 3606 30f3 05c2 2c12 e90d 99f7 02d7 7f02

model_1/block_2_expand/Conv2D i1 [48, 1, 1, 8]
74 34 -15 -14 127 7 -15 -29
-11 -3 6 127 9 -20 6 32
37 -127 -30 56 8 -95 85 12
127 -23 -13 24 -7 -28 26 -3
18 -48 127 2 -20 -49 16 -100
43 -8 0 -20 127 14 -10 9
-20 105 -18 127 21 38 -67 -56
-1 127 -6 5 7 -6 17 -6
127 35 5 7 -60 -17 -15 -28
-127 10 9 21 60 21 -24 -9
-64 -20 16 127 30 40 -28 -14
-127 -9 20 -60 35 12 -25 -42
127 6 -4 6 -37 -8 6 -24
-11 63 -127 -7 5 92 -67 74
-43 -20 -12 127 13 29 -4 -42
-2 127 2 -11 6 -9 6 -55
-30 -122 -14 14 -11 -127 115 -32
19 127 4 -11 19 79 -84 -19
-6 45 -127 3 8 55 -37 58
-114 42 5 -20 -127 -15 33 27
-127 -9 6 6 31 -34 21 -16
-66 -29 -9 -6 -127 -7 7 24
-127 -40 -6 -13 75 -16 46 77
-30 -18 -5 -18 4 74 -127 -99
-8 35 -127 0 9 45 -24 73
120 -42 -23 127 -79 -37 29 -33
7 -17 -10 -6 -18 118 127 -30
56 -5 14 16 127 21 28 -19
-7 115 -68 7 9 64 -29 127
-12 17 2 -8 6 76 -127 -81
11 -8 -1 -127 -6 1 -7 -13
-83 -4 15 8 -127 12 19 6
00000000: 4a22 f1f2 7f07 f1e3 f5fd 067f 09ec 0620
00000010: 2581 e238 08a1 550c 7fe9 f318 f9e4 1afd
00000020: 12d0 7f02 eccf 109c 2bf8 00ec 7f0e f609
00000030: ec69 ee7f 1526 bdc8 ff7f fa05 07fa 11fa
00000040: 7f23 0507 c4ef f1e4 810a 0915 3c15 e8f7
00000050: c0ec 107f 1e28 e4f2 81f7 14c4 230c e7d6
00000060: 7f06 fc06 dbf8 06e8 f53f 81f9 055c bd4a
00000070: d5ec f47f 0d1d fcd6 fe7f 02f5 06f7 06c9
00000080: e286 f20e f581 73e0 137f 04f5 134f aced
00000090: fa2d 8103 0837 db3a 8e2a 05ec 81f1 211b
000000a0: 81f7 0606 1fde 15f0 bee3 f7fa 81f9 0718
000000b0: 81d8 faf3 4bf0 2e4d e2ee fbee 044a 819d
000000c0: f823 8100 092d e849 78d6 e97f b1db 1ddf
000000d0: 07ef f6fa ee76 7fe2 38fb 0e10 7f15 1ced
000000e0: f973 bc07 0940 e37f f411 02f8 064c 81af
000000f0: 0bf8 ff81 fa01 f9f3 adfc 0f08 810c 1306

model_1/block_1_project/Conv2D i1 [8, 1, 1, 48]
-13 1 11 -86 16 29 6 4
0 -1 3 -1 85 0 -1 10
0 -2 0 3 71 3 -2 0
29 30 7 16 2 6 4 -127
8 4 6 -1 -25 -2 -15 24
7 -25 -4 4 3 -5 6 2
-32 -4 -1 -10 43 25 -30 85
16 4 -31 -21 16 0 14 31
0 44 16 -46 8 23 127 23
-23 6 55 1 24 -6 13 -8
15 -9 -12 -26 -2 -51 17 1
-9 -12 -77 -6 -30 11 -46 -92
-56 19 -5 15 39 -12 30 21
-15 58 7 -4 1 0 3 49
0 9 -127 20 -7 7 2 -14
-35 -1 34 -1 8 36 19 0
5 -6 -9 -15 7 7 6 -1
35 -3 -27 0 25 -48 28 14
0 -10 -2 7 -2 26 0 1
67 15 -2 3 32 0 -35 -6
0 3 -7 0 -4 5 9 -23
-17 1 -5 -7 -1 -7 8 -7
-59 43 -59 -2 5 2 10 -127
0 4 -2 -52 -4 0 1 5
1 0 83 40 -4 -26 -2 -10
0 0 0 -20 -87 0 -15 0
0 1 1 4 60 -8 0 -3
-17 20 0 53 -12 -4 -1 88
7 11 -1 1 10 -13 -27 -18
0 -127 9 1 6 3 0 -6
-5 45 5 -6 2 46 26 10
-25 28 9 52 28 0 -127 -4
00000000: f301 0baa 101d 0604 00ff 03ff 5500 ff0a
00000010: 00fe 0003 4703 fe00 1d1e 0710 0206 0481
00000020: 0804 06ff e7fe f118 07e7 fc04 03fb 0602
00000030: e0fc fff6 2b19 e255 1004 e1eb 1000 0e1f
00000040: 002c 10d2 0817 7f17 e906 3701 18fa 0df8
00000050: 0ff7 f4e6 fecd 1101 f7f4 b3fa e20b d2a4
00000060: c813 fb0f 27f4 1e15 f13a 07fc 0100 0331
00000070: 0009 8114 f907 02f2 ddff 22ff 0824 1300
00000080: 05fa f7f1 0707 06ff 23fd e500 19d0 1c0e
00000090: 00f6 fe07 fe1a 0001 430f fe03 2000 ddfa
000000a0: 0003 f900 fc05 09e9 ef01 fbf9 fff9 08f9
000000b0: c52b c5fe 0502 0a81 0004 fecc fc00 0105
000000c0: 0100 5328 fce6 fef6 0000 00ec a900 f100
000000d0: 0001 0104 3cf8 00fd ef14 0035 f4fc ff58
000000e0: 070b ff01 0af3 e5ee 0081 0901 0603 00fa
000000f0: fb2d 05fa 022e 1a0a e71c 0934 1c00 81fc

model_1/block_1_depthwise_BN/FusedBatchNormV3;model_1/block_1_depthwise/depthwise;model_1/block_3_depthwise/depthwise i1 [1, 3, 3, 48]
-43 -22 -8 -18 7 -38 -79 -67
-26 -49 10 64 38 -71 113 -42
-113 -82 36 -7 -1 -69 -111 -81
-35 -127 -63 -23 70 15 96 25
-127 -91 -8 55 19 47 -127 79
-79 -13 104 -109 -2 -34 -87 107
74 12 -28 -30 56 -127 -127 -80
62 -74 -113 107 39 -82 -2 62
-52 -114 59 6 9 -113 -127 -70
-4 -126 -123 -43 -57 21 -56 54
30 -127 65 83 14 72 -94 127
-127 7 125 -127 2 -22 -127 94
-32 45 6 -5 -65 -109 -59 -19
90 -7 -127 37 9 -71 -102 -11
-127 -26 27 11 -16 -77 -36 -25
-11 -28 -60 -15 -13 16 -24 8
107 -87 69 32 14 35 -5 17
-79 2 7 -80 -17 6 -55 15
-85 -127 -45 -44 -10 56 99 -106
-27 -107 -21 113 90 -64 26 -95
-121 -93 89 -78 42 -89 -101 -127
41 -123 -78 -38 127 -60 127 83
-43 -83 -17 84 -36 -77 -108 89
42 59 104 -108 -90 -116 81 120
127 -85 -127 -127 127 41 95 -127
102 -127 -113 127 127 -14 -7 127
-60 -127 127 -127 127 -127 -118 -117
127 -100 -127 -127 -123 -127 -71 127
29 -111 127 127 -68 -127 -97 90
60 127 127 -116 -112 -127 124 127
-52 32 -62 -85 -120 -22 31 -39
127 -21 -78 37 56 -70 -26 -43
00000000: d5ea f8ee 07da b1bd e6cf 0a40 26b9 71d6
00000010: 8fae 24f9 ffbb 91af dd81 c1e9 460f 6019
00000020: 81a5 f837 132f 814f b1f3 6893 fede a96b
00000030: 4a0c e4e2 3881 81b0 3eb6 8f6b 27ae fe3e
00000040: cc8e 3b06 098f 81ba fc82 85d5 c715 c836
00000050: 1e81 4153 0e48 a27f 8107 7d81 02ea 815e
00000060: e02d 06fb bf93 c5ed 5af9 8125 09b9 9af5
00000070: 81e6 1b0b f0b3 dce7 f5e4 c4f1 f310 e808
00000080: 6ba9 4520 0e23 fb11 b102 07b0 ef06 c90f
00000090: ab81 d3d4 f638 6396 e595 eb71 5ac0 1aa1
000000a0: 87a3 59b2 2aa7 9b81 2985 b2da 7fc4 7f53
000000b0: d5ad ef54 dcb3 9459 2a3b 6894 a68c 5178
000000c0: 7fab 8181 7f29 5f81 6681 8f7f 7ff2 f97f
000000d0: c481 7f81 7f81 8a8b 7f9c 8181 8581 b97f
000000e0: 1d91 7f7f bc81 9f5a 3c7f 7f8c 9081 7c7f
000000f0: cc20 c2ab 88ea 1fd9 7feb b225 38ba e6d5

model_1/block_1_expand/Conv2D i1 [48, 1, 1, 8]
10 -127 38 -33 25 -24 -34 25
72 71 -16 -95 9 -1 -76 127
34 10 -38 121 40 127 55 93
74 71 -76 127 -95 -10 -12 20
-40 -101 57 20 15 46 -33 -127
9 1 -45 58 17 -41 38 127
57 -15 -122 -87 127 18 60 -35
127 22 19 -27 28 -3 81 -61
18 -90 14 99 -10 6 -12 -127
105 -127 5 -7 -15 15 -116 78
-127 -27 -121 25 -2 0 -112 72
-26 -50 -17 -120 -127 -30 63 -12
22 2 -43 58 -70 -27 59 127
0 0 0 0 0 0 0 0
-6 -27 -3 14 46 127 47 40
41 7 7 -127 68 43 -57 76
0 0 0 0 0 0 0 0
22 36 127 20 -29 -5 32 31
94 -127 16 34 -12 15 -116 8
-127 -13 35 73 -58 -46 -85 70
40 44 -41 121 -40 -127 -15 61
58 18 127 17 -14 -7 79 14
-74 -22 -127 -11 15 25 -90 -5
-99 115 -29 -33 -4 -8 127 -85
8 -57 -53 81 -15 -61 100 127
10 35 23 23 97 127 -55 -54
-88 -26 -127 -3 0 20 -89 -12
5 -22 -33 9 -40 127 86 51
-1 -39 -23 41 26 127 58 65
111 32 127 -3 -18 -25 102 -19
-76 127 -22 -19 7 -7 95 -44
-31 -98 -25 7 52 -81 127 120
00000000: 0a81 26df 19e8 de19 4847 f0a1 09ff b47f
00000010: 220a da79 287f 375d 4a47 b47f a1f6 f414
00000020: d89b 3914 0f2e df81 0901 d33a 11d7 267f
00000030: 39f1 86a9 7f12 3cdd 7f16 13e5 1cfd 51c3
00000040: 12a6 0e63 f606 f481 6981 05f9 f10f 8c4e
00000050: 81e5 8719 fe00 9048 e6ce ef88 81e2 3ff4
00000060: 1602 d53a bae5 3b7f 0000 0000 0000 0000
00000070: fae5 fd0e 2e7f 2f28 2907 0781 442b c74c
00000080: 0000 0000 0000 0000 1624 7f14 e3fb 201f
00000090: 5e81 1022 f40f 8c08 81f3 2349 c6d2 ab46
000000a0: 282c d779 d881 f13d 3a12 7f11 f2f9 4f0e
000000b0: b6ea 81f5 0f19 a6fb 9d73 e3df fcf8 7fab
000000c0: 08c7 cb51 f1c3 647f 0a23 1717 617f c9ca
000000d0: a8e6 81fd 0014 a7f4 05ea df09 d87f 5633
000000e0: ffd9 e929 1a7f 3a41 6f20 7ffd eee7 66ed
000000f0: b47f eaed 07f9 5fd4 e19e e707 34af 7f78

model_1/expanded_conv_project/Conv2D i1 [8, 1, 1, 16]
0 -27 7 1 127 7 2 5
1 -120 -90 -3 0 118 -5 0
0 -26 0 88 70 7 17 0
2 -3 127 -51 0 34 -12 0
0 -1 -1 -12 -57 2 14 0
0 5 -17 2 0 127 -8 0
0 -11 -22 -127 90 20 66 10
-1 62 -6 41 0 0 15 0
0 49 -20 36 -66 30 127 8
-2 -71 19 -15 0 -11 20 0
0 -18 -3 -1 -22 -26 -16 16
-3 9 0 -38 0 -5 127 0
0 17 -1 8 48 -22 -30 -6
-3 -116 113 67 0 127 60 0
0 13 -17 127 4 0 18 12
2 65 -49 76 0 -8 47 0
00000000: 00e5 0701 7f07 0205 0188 a6fd 0076 fb00
00000010: 00e6 0058 4607 1100 02fd 7fcd 0022 f400
00000020: 00ff fff4 c702 0e00 0005 ef02 007f f800
00000030: 00f5 ea81 5a14 420a ff3e fa29 0000 0f00
00000040: 0031 ec24 be1e 7f08 feb9 13f1 00f5 1400
00000050: 00ee fdff eae6 f010 fd09 00da 00fb 7f00
00000060: 0011 ff08 30ea e2fa fd8c 7143 007f 3c00
00000070: 000d ef7f 0400 120c 0241 cf4c 00f8 2f00

model_1/expanded_conv_depthwise_BN/FusedBatchNormV3;model_1/expanded_conv_depthwise/depthwise;model_1/block_5_project/Conv2D i1 [1, 3, 3, 16]
-108 18 -82 -127 39 -66 80 -76
-88 -3 -8 29 -127 4 54 -73
51 25 -127 127 127 -127 127 -127
-84 127 -127 51 -105 5 127 -25
24 -24 92 -2 -72 69 -95 79
-93 -28 4 -15 61 1 -101 -29
-127 127 -22 13 -44 17 -29 14
-27 0 3 -109 -49 8 -29 -14
-78 -42 -57 -15 -8 -25 8 -28
-108 -89 21 -12 -104 -127 1 23
14 1 66 2 3 35 -26 34
-125 6 -2 2 -21 12 -4 43
-115 -73 70 2 -7 40 -39 52
-77 0 0 4 40 2 -27 23
23 -4 32 -2 -27 41 -34 21
-127 -13 0 84 -58 0 -28 -111
21 -7 20 0 4 15 9 22
-115 4 -1 -127 107 2 17 -127
00000000: 9412 ae81 27be 50b4 a8fd f81d 8104 36b7
00000010: 3319 817f 7f81 7f81 ac7f 8133 9705 7fe7
00000020: 18e8 5cfe b845 a14f a3e4 04f1 3d01 9be3
00000030: 817f ea0d d411 e30e e500 0393 cf08 e3f2
00000040: b2d6 c7f1 f8e7 08e4 94a7 15f4 9881 0117
00000050: 0e01 4202 0323 e622 8306 fe02 eb0c fc2b
00000060: 8db7 4602 f928 d934 b300 0004 2802 e517
00000070: 17fc 20fe e529 de15 81f3 0054 c600 e491
00000080: 15f9 1400 040f 0916 8d04 ff81 6b02 1181

model_1/Conv1/Conv2D i1 [16, 3, 3, 3]
0 0 0 0 0 0 0 0
0 0 0 0 0 0 0 0
0 0 0 0 0 0 0 0
0 0 0 49 -7 34 -5 -29
17 -127 -124 -62 6 -3 6 -18
6 2 8 -28 15 7 27 11
4 15 8 50 -12 23 20 -20
-20 76 113 -8 35 -52 -3 11
10 -4 71 127 -34 13 -14 -16
62 -65 27 88 -42 -17 37 -59
14 4 29 0 31 90 16 0
6 -4 19 33 3 67 127 27
-18 -21 2 8 6 6 30 30
12 -2 -3 3 30 71 -13 6
77 -17 -18 9 -8 26 72 34
19 104 20 28 46 -18 52 74
51 52 127 38 -7 39 45 14
2 -127 0 -1 -113 -4 26 -32
15 -33 -111 7 -36 -103 2 14
-22 8 17 -8 12 7 -1 9
21 -2 26 -62 34 49 -86 40
10 -20 8 36 -96 60 64 -127
71 8 -29 16 21 -34 14 17
-42 28 -10 8 0 -14 37 26
-88 -18 24 -13 36 21 -14 0
14 -127 -85 5 -2 2 18 -21
33 -2 -11 13 5 -15 30 5
127 97 59 119 85 49 94 40
11 92 58 43 82 45 31 55
-2 -11 71 29 7 59 15 -7
20 -35 -45 -26 -6 8 -12 -3
4 3 6 -7 91 114 -1 68
00000000: 0000 0000 0000 0000 0000 0000 0000 0000
00000010: 0000 0000 0000 0000 0000 0031 f922 fbe3
00000020: 1181 84c2 06fd 06ee 0602 08e4 0f07 1b0b
00000030: 040f 0832 f417 14ec ec4c 71f8 23cc fd0b
00000040: 0afc 477f de0d f2f0 3ebf 1b58 d6ef 25c5
00000050: 0e04 1d00 1f5a 1000 06fc 1321 0343 7f1b
00000060: eeeb 0208 0606 1e1e 0cfe fd03 1e47 f306
00000070: 4def ee09 f81a 4822 1368 141c 2eee 344a
00000080: 3334 7f26 f927 2d0e 0281 00ff 8ffc 1ae0
00000090: 0fdf 9107 dc99 020e ea08 11f8 0c07 ff09
000000a0: 15fe 1ac2 2231 aa28 0aec 0824 a03c 4081
000000b0: 4708 e310 15de 0e11 d61c f608 00f2 251a
000000c0: a8ee 18f3 2415 f200 0e81 ab05 fe02 12eb
000000d0: 21fe f50d 05f1 1e05 7f61 3b77 5531 5e28
000000e0: 0b5c 3a2b 522d 1f37 fef5 471d 073b 0ff9
000000f0: 14dd d3e6 fa08 f4fd 0403 06f9 5b72 ff44
